Logs/save_test/classifier_tdm.pt (torch, 32807 bytes, 2 tensors)

weight f4 [31, 256]
000000 65 38 a9 bc ae 42 88 3c 43 25 7a bd ee fc 3c 3d
       -0.020656774 0.016633358 -0.06107069 0.04613965
000010 74 06 e5 3c 17 f4 41 3d 37 90 e7 bc 67 b6 7d 3c
       0.027957179 0.047351923 -0.02826701 0.015485383
000020 fc 04 86 bc 5b f7 9d bc 94 31 83 3d 6a e8 2f 3c
       -0.016359799 -0.019282987 0.06405941 0.010736564
000030 28 d9 3e 3b cd ce 73 3d 99 ad 0d 3c fe 2b de 3c
       0.0029121134 0.059523392 0.008647346 0.027120586
000040 94 12 c0 bc 00 59 50 bd 91 7a 42 3b 5b 20 36 bd
       -0.023446359 -0.050866127 0.0029675106 -0.04446445
000050 9f b2 2f 3d 89 39 4a 3d 08 32 3c 3d f9 4f 4b 3b
       0.042894956 0.049371276 0.04594615 0.003102301
000060 1a 95 1a 3d e6 66 33 bd 19 d2 46 bd b6 64 c1 bc
       0.03773985 -0.043799303 -0.04854021 -0.023607593
000070 05 31 39 bd b4 59 93 bb 63 89 40 bd ae e0 48 3a
       -0.045212764 -0.0044967774 -0.047006022 0.00076628744
000080 b5 6c d3 3c 32 ce 89 3c de b1 16 3c c9 4f 66 bd
       0.025808671 0.016821954 0.00919768 -0.056228433
000090 0e cc 0a bd 54 b5 6e bd cb 88 8a bc b4 7c 1b bd
       -0.033886008 -0.058278397 -0.016910931 -0.037960723
0000a0 93 99 50 bd 2d 8e b9 3a cd b1 84 3d 8b 49 11 bc
       -0.05092771 0.0014156752 0.06479225 -0.008867632
0000b0 60 b5 e9 bc 38 f5 66 3d b4 e0 1f bd 41 2b 90 bc
       -0.02852887 0.056386203 -0.039032653 -0.01759875
0000c0 af d2 58 bd 9d 88 92 3c 83 fd 58 bd 45 08 e1 3c
       -0.0529353 0.017887408 -0.052976143 0.027469764
0000d0 3c 16 86 3c 86 f6 a0 3c 60 fa 73 3d 31 f0 bf 3c
       0.016368024 0.019648802 0.059564948 0.023429962
0000e0 0a 14 09 bc dd 39 15 3d 25 dd 64 bc 4c 97 89 3c
       -0.008366594 0.036432136 -0.013968741 0.016795777
0000f0 42 64 20 bb 16 05 62 3d 64 01 1c bd e2 db 1f bd
       -0.002447382 0.05518063 -0.038087264 -0.039028056
000100 58 44 26 bd 53 a8 06 3d 92 c7 46 3d 39 54 9e bc
       -0.04059252 0.03287537 0.04853017 -0.01932727
000110 ea f9 7f 3c 9f 97 12 3d ce 20 63 bd 36 a4 52 bd
       0.015623549 0.03578913 -0.055451207 -0.051426135
000120 47 9c 3d bd 38 39 3b bc b3 8b 13 bd 57 f6 81 bb
       -0.046291616 -0.011427216 -0.0360219 -0.0039661336
000130 86 16 14 bc 0b 42 42 bd db 47 53 3d 7b 8d 06 3d
       -0.009038573 -0.047426265 0.0515822 0.03284977
000140 fb e7 55 bd 65 44 37 bd b8 8a fe bc 76 d7 1b 3d
       -0.052223187 -0.04474296 -0.031072006 0.038047276
000150 5c 10 6e 3d e0 f0 58 3c 37 5a 93 3c e4 24 35 3d
       0.05812107 0.013241023 0.017987354 0.044224635
000160 a1 87 24 3d 09 6e 8b 39 39 1f f7 bc 77 83 1e 3d
       0.04016841 0.0002659413 -0.030166255 0.038699593
000170 61 44 0e 3d 4f 84 11 3d fd 06 3a 3c 81 24 d3 bc
       0.03473318 0.03552657 0.011354205 -0.025774242
000180 3d d4 4c 3d 7d 49 63 3d 4c 96 2c bd e1 c8 29 3d
       0.050007094 0.055490006 -0.04213552 0.04145134
000190 86 70 60 bd 83 23 ec bc 13 a2 70 bc 53 6a 0b ba
       -0.05479481 -0.028825527 -0.014687079 -0.0005318273
0001a0 83 c4 4c 3d e5 23 03 bb 8c f1 06 3d 79 d0 d4 3c
       0.049992096 -0.0020010408 0.0329452 0.025978314
0001b0 58 0c 43 bd 46 4c 43 bc d6 7a fa 3c 37 0c 00 3d
       -0.047619194 -0.0119200405 0.03057615 0.03126165
0001c0 65 29 56 3c 7f c0 46 3d 22 da 07 bd 60 71 20 bd
       0.013071393 0.048523422 -0.033167012 -0.039170623
0001d0 2e d7 25 bc 3c fd 7a 3d 07 b1 89 3c 37 b9 69 3d
       -0.010122104 0.06127666 0.016808046 0.0570614
0001e0 3d 40 7f 3d dd 4b a2 3c 0e 0f d7 3c e0 3e b3 3c
       0.06231712 0.019811565 0.026252296 0.021880567
0001f0 5b 2c f2 bb 36 5f 3f bd cf 0a 11 bd d6 fe aa 3c
       -0.0073905415 -0.04672166 -0.0354107 0.020873468
000200 bc 9b 90 3c db 7d 30 bd 92 d0 42 bb db ce 8c 3c
       0.017652385 -0.043088775 -0.0029726368 0.01718848
000210 35 2a c3 bb ac 97 ca bc f8 2a 02 3c fa 13 4e 3d
       -0.005955959 -0.024730526 0.007944815 0.05031202
000220 1b e4 38 3d 5c 20 58 3d 4e ff 8b 3c d2 9e f9 bc
       0.045139413 0.052765235 0.017089512 -0.03047124
000230 8a 76 d5 3b 0e fb 73 3d f6 55 98 3c f2 1f 3a bc
       0.006514375 0.059565596 0.018595677 -0.011360155
000240 a1 37 4e 3d 5c a3 8c bc 87 0b 3c bd a6 55 41 bd
       0.05034602 -0.01716774 -0.04590943 -0.04720082
000250 5e 0a f1 bc 64 a8 46 bd 80 a9 7b bc 67 a7 56 bd
       -0.029423889 -0.048500434 -0.015360236 -0.05240574
000260 8f 1c cf bc 7d 2b 79 bd cb 48 2f 3d 74 e1 ed bc
       -0.025282172 -0.06083249 0.04279403 -0.029038168
000270 13 8e fb bc 2d c3 40 bd 99 c2 28 bd 5b 00 2e 3d
       -0.030707395 -0.047061134 -0.041201208 0.042480808
000280 d8 c1 15 bd 07 2f 26 3d 97 8c 3b bc 44 57 6f 3d
       -0.036561817 0.040572193 -0.011447093 0.058432832
000290 af 45 0f bb 84 51 48 bc e7 3a 5e bd 2a dc 3f 3d
       -0.0021861603 -0.012226466 -0.054255392 0.046840824
0002a0 96 d5 4e bd c5 1a 70 3d 68 2d 89 bc d8 b8 4f 3d
       -0.05049666 0.05861928 -0.016745284 0.05071339
0002b0 df 34 be 3c 10 6d 99 3c e1 8f 4a 3d 3e 9d 01 3d
       0.02321857 0.018728763 0.04945362 0.0316441
0002c0 cf c9 04 3d b3 3a 48 3d 71 8f 69 bd c1 67 b8 3b
       0.032419022 0.048884105 -0.057021562 0.005627603
0002d0 72 1f fc bc 23 6f 4e 3c 1f 7b 73 3c c9 16 34 3d
       -0.030776713 0.012599739 0.014860897 0.043967042
0002e0 1b 67 ab ba 7e f0 60 3d 9d 5f 29 3c e9 8d 99 3c
       -0.0013076992 0.05491685 0.010337737 0.018744426
0002f0 99 d2 15 3d a6 5a 75 3d 84 7f a5 3c 40 ef 19 bd
       0.036577795 0.059900902 0.020202406 -0.037581682
000300 4c 46 13 3d 38 f5 ed 3c 83 fb 4a 3d b2 39 01 3d
       0.035955712 0.029047593 0.049556267 0.031549163
000310 c7 d5 94 bc f5 dd c6 3c c3 4d 88 bc cb dd ac 3c
       -0.018168343 0.02427576 -0.016638642 0.021101853
000320 ae 73 8d bb 26 d7 71 3d 9b 6a 07 bd 1c e3 3c bd
       -0.0043167686 0.059043072 -0.03306065 -0.046115026
000330 11 bb 6e 3d c3 eb 1c bd 89 28 80 3d 25 b0 00 3d
       0.05828387 -0.038310777 0.062577315 0.031417985
000340 6b 34 1b bd 64 21 8e bc 80 2b 13 bb bf a8 ff 3b
       -0.037891787 -0.017349906 -0.0022456348 0.0078020985
000350 53 fe 19 bd 24 3f 0a 3d 44 18 67 bd 4a cb 37 3d
       -0.037596058 0.03375162 -0.056419626 0.044871606
000360 8f c2 a5 ba 44 07 82 3d 71 eb 29 3d e5 05 51 3d
       -0.0012646484 0.06349042 0.0414843 0.051031012
000370 eb 47 1e 3d 87 32 c2 3c da 84 73 bb c6 51 2a 3d
       0.038642805 0.023705734 -0.0037158043 0.04158189
000380 d2 65 89 3c 7a 57 24 3d 32 45 5d 3b d6 2e 15 3d
       0.016772185 0.040122487 0.0033763167 0.03642162
000390 ae 52 4e 3b 5e 82 49 bd 46 48 88 3b dd 55 15 3c
       0.0031482386 -0.049196593 0.0041590063 0.00911471
0003a0 d2 f6 5c 3d 2f e5 a4 bc 1c a5 b2 bc be 5c d0 3c
       0.053946324 -0.020128815 -0.021807246 0.025434848
0003b0 01 29 41 3b d2 a8 80 3d 1e 9b f6 bc 1f 47 b9 3c
       0.0029473903 0.062822 -0.030103263 0.022616921
0003c0 eb 4e d9 3c 8f 2e 94 3b f7 89 45 3d 9a 53 00 3d
       0.026526889 0.004522152 0.048227277 0.03132973
0003d0 de 39 10 bb 57 64 5e 3d 89 ca 5f 3d 20 ce d7 bc
       -0.0022007148 0.05429491 0.054636512 -0.026343405
0003e0 87 6e 9e 3b e9 30 3f 3d b9 7f b7 3b 7e e6 69 bd
       0.004834953 0.046677504 0.0055999425 -0.05710458
0003f0 9c 93 60 3d a4 99 b2 3c c8 c1 28 bd 89 d0 f2 bc
       0.05482827 0.021801777 -0.04120043 -0.029640453

bias f4 [31]
000000 12 a1 6f 3d 64 4a 24 3d 68 b9 93 3c a6 7e 08 3d
       0.058503218 0.040110007 0.018032745 0.033323906
000010 52 5c 6a 3d 9a e8 7b bc 38 b6 21 3d 55 91 cb bc
       0.05721695 -0.015375281 0.039480418 -0.024849573
000020 b5 4c 78 3b 81 7f 79 3d c4 53 7d bd f5 e4 10 bd
       0.0037887518 0.060912613 -0.061847463 -0.0353746
000030 bb 35 3b bd 8f 35 cf 3c 12 0d d1 bc 5f 44 7b 3d
       -0.04570554 0.025294093 -0.025518928 0.0613445
000040 ce 4a 31 3c 68 c4 24 3d 98 3a 7a bd 08 a1 2e 3d
       0.0108210575 0.04022637 -0.061091036 0.04263404
000050 8b b3 40 3d 28 62 56 bb 68 e9 64 bc 68 2d 8a 3d
       0.047046226 -0.0032712314 -0.013971664 0.06746942
000060 de d4 93 3c 57 eb 3d bd 68 f4 05 3d 57 9d 09 bd
       0.018045839 -0.046367016 0.032703787 -0.033597317
000070 db d0 03 bb 9d ae 74 3d 08 36 97 bc
       -0.0020113501 0.059736837 -0.018458381
