Logs/save_test/classifier_sdm.pt (torch, 32807 bytes, 2 tensors)

weight f4 [31, 256]
00000000: f8dc 1dbd 67c9 973c 8263 7fbd 4099 0e3d
00000010: 3b61 143d 98e0 083b 3aa4 b8bc f8fe 423d
00000020: 1184 273d 4464 2b3d 45ee 5b3d a326 74bc
00000030: 07e4 9abb f413 17bb 7f8f 61bd 5bd4 593d
00000040: f85c 51bd f44c 2e3b 815e 013d 5577 4b3c
00000050: 4a8c 07bd 059c 4ebd f328 5ebc bee1 f7bb
00000060: f044 003d 425b 533c fd00 38bd 863b fb3c
00000070: 34bd 773d cf3f 3bbc 8e9a bc3c 37f6 babc
00000080: c3a9 0abb 19ee ebbc 3b00 78bc fdbb 04bd
00000090: 88e9 2cbd 5d78 503d 5723 aa3c 495f e5bc
000000a0: 469a c63c 5e1c 263d 3425 11bd 792e 133d
000000b0: 212e 35bb 2a38 ba3c 5f8b 67bc be21 a7bb
000000c0: 0593 36bd f0d9 00bd 5b5f 8b3b c64a 40bd
000000d0: cf09 64bd d326 3ebc e264 c3bc 38b1 773d
000000e0: eb47 5fbd 0641 63bc 9139 8ebc ea1f 133c
000000f0: d40c 81bc 8348 343d e22c 633d 13a5 3b3c
00000100: 0b40 0cbd 3f8d 3fbd 2c84 92bc 499c fbbc
00000110: 8000 073d 1a90 ac3c ff01 253c cf06 003d
00000120: c5d1 29bd 30a6 5b3d 701c 32bd a4a2 0cbd
00000130: 3499 9e3c 65e3 6fbc 4dca 1abd 60d5 19bd
00000140: b1ab 7abd a9ae 033d 2713 473d 6bd2 223d
00000150: 1d0e f6bc 96bf 23bd 85e8 6c3d 4c8f e7bb
00000160: 4b99 7d3d 8926 1d3d e653 07bd 0546 6ebd
00000170: d66f 1a3d a8f5 33bd 1ee6 493d 64d6 4e3d
00000180: ada9 ffbc 22a0 6ebd e2e7 3fbc 71b0 1fbc
00000190: 41b3 6abd 3d23 e73c e13d 373d db4d 0bbd
000001a0: d634 843c 7812 f53c 86da d3bb 61e6 473d
000001b0: a741 d639 327e e63b e817 db3c 6f3c 213d
000001c0: 769a 17bc 47ed 273d a092 f23c c919 413d
000001d0: 0843 f13c f274 0fbd 71af e7bc 7419 2c3d
000001e0: 5558 92bc 5e4e 41bd eaed 5bbd 0eb5 783c
000001f0: 3152 36bd c02f 1f3d 4af2 583d 38f7 d9bc
00000200: 9ef5 043d 8003 413b 3b3f 1b3d 3470 b63c
00000210: bcfa a43c 6367 abbb 1712 2cbd 8fbc 673c
00000220: 3e85 9b3c 8d83 72bd a67a 19bc 1b59 0f3c
00000230: d2aa 64bc 1072 26bb 76cb bc3c 0f1b 1cbd
00000240: 991d 043d 0e45 09bd aca0 66bd 609c a5bb
00000250: 57af 663d 645e c33b c350 783d 8c5b d1bc
00000260: 6703 20bd 7fcf 7e3c ff0d 2c3c bace 153d
00000270: 2aa6 a6bc 88b6 28bc e9de 3ebd 4c26 4ebd
00000280: 4645 9dbc afb5 173d b7fc 323d 1d7e 203c
00000290: d98c f9bc 60f8 1abd 64a7 f5bb 346d 343c
000002a0: e675 5c3d befc d63c cc79 343d 01d0 11bd
000002b0: c4e2 56bb 4e65 703d e0a4 70bd b57b 733c
000002c0: 0d17 5d3d daf9 3bbd 6920 5e3d 375e 5b3d
000002d0: 4cd6 02bd d7ba 223d 87dc 1f3d 58d0 f93b
000002e0: c449 0b3d 4ec6 5a3d 23d3 583d 9069 b9bc
000002f0: 37c3 36bc 6cee b5bc 427d b23c 42ab 6d3c
00000300: 6b9e 463c 1c99 693d 79a6 e5bc 8869 273d
00000310: 9bb8 bebc 9de0 63bd 15fb 493d c84c 573d
00000320: 69ad ee3b 2d18 6ebd 68ae efbb e87f ebbc
00000330: 6299 3dbb c736 2abc 3c19 debc 7fb7 2fbd
00000340: 1614 843c baf3 5a3d 1f1f ff3c 1663 b2bc
00000350: f67d 35bd c9fd e6bc 37f5 b0bc e7e5 173c
00000360: 1612 193c 320d e8bb 640f 6f3d f19c daba
00000370: f5f0 4cbd 55d1 42bd ee36 ea3b 0ed4 4ebd
00000380: 54ea 29bc b74b 77ba 7062 15bd 4f8f 07bd
00000390: fafa e33c 5a07 66bc 1686 6dbd d224 cdbb
000003a0: 6ee6 6c3d 3cbc 2bbd ee61 6bbd 04bf 693c
000003b0: e5e1 01bd 8a72 ccbb 4b05 23bd f30e 6c3d
000003c0: 8303 353d e305 953b a480 27bd 1506 993c
000003d0: dd48 053d e883 1abd 9ef0 d8bc 9ac1 013d
000003e0: 23ca 9d3c 5a8d 80bd 7e2b fe3c e1f7 26bd
000003f0: 2d63 163d 974f eabc 1981 26bd 6bd6 1f3d
-0.03854081 0.018528653 -0.062350757 0.03481412 0.03622554 0.0020885821 -0.022539247 0.04760644
0.040897433 0.041843668 0.05369403 -0.01490179 -0.00472689 -0.0023052664 -0.05506849 0.053181034
-0.051114053 0.002659616 0.031584267 0.012418588 -0.033092774 -0.05044176 -0.013559568 -0.0075647524
0.031315744 0.0129001755 -0.044922817 0.030668031 0.060483173 -0.011428787 0.023022916 -0.022822483
-0.0021158315 -0.028800057 -0.015136774 -0.032405842 -0.0422149 0.050896037 0.020768804 -0.027999537
0.024243485 0.040554397 -0.03543587 0.03593299 -0.0027645903 0.02273186 -0.01413235 -0.005100458
-0.044573803 -0.03145784 0.0042533106 -0.04694631 -0.055673417 -0.011605936 -0.023851816 0.060471743
-0.054511946 -0.013870483 -0.017361434 0.008979777 -0.015753187 0.044014465 0.055462725 0.011452931
-0.034240764 -0.046765562 -0.01788529 -0.030714171 0.03295946 0.021064807 0.010071277 0.031256493
-0.041459817 0.053625286 -0.04348415 -0.034334794 0.019360162 -0.014641617 -0.037790585 -0.037557006
-0.061198894 0.03214899 0.04860225 0.03975145 -0.030036027 -0.039977632 0.057838935 -0.007066643
0.06191377 0.038366828 -0.033038996 -0.058172245 0.03770431 -0.043935448 0.049291722 0.050497428
-0.031208837 -0.058258183 -0.011713 -0.009746657 -0.057299856 0.028215045 0.044736747 -0.034009796
0.016138475 0.029916033 -0.006465259 0.04880369 0.00040866176 0.0070340866 0.026744798 0.039364275
-0.009253135 0.04099777 0.029610932 0.04714373 0.029450908 -0.035023637 -0.0282819 0.04201646
-0.017864386 -0.047193877 -0.05369369 0.015179886 -0.044511978 0.038863897 0.05296544 -0.02660714
0.0324608 0.002945155 0.0379021 0.0222703 0.02013909 -0.0052308305 -0.04200944 0.014144077
0.018984433 -0.059207488 -0.009367621 0.008749272 -0.013956742 -0.0025397576 0.023046236 -0.038111743
0.03225479 -0.03351312 -0.056305572 -0.0050540417 0.05631956 0.00596218 0.060623895 -0.025556348
-0.039065745 0.015552401 0.010501384 0.036574103 -0.020342905 -0.010297425 -0.046599302 -0.05032949
-0.019198071 0.0370385 0.04369804 0.009795693 -0.03046267 -0.037834525 -0.007496761 0.011012364
0.053823374 0.026243564 0.044061467 -0.03559876 -0.0032788971 0.05869036 -0.058750987 0.014861037
0.05397706 -0.045892574 0.054230127 0.053556647 -0.03194265 0.039728966 0.03902867 0.0076237135
0.034005895 0.053411774 0.05293573 -0.022633344 -0.011154941 -0.022208415 0.021788243 0.014506163
0.012122731 0.057030782 -0.028033482 0.040872127 -0.023281386 -0.05563413 0.049311716 0.05256346
0.0072838557 -0.058128525 -0.007314492 -0.028747514 -0.0028930535 -0.0103890365 -0.027111642 -0.042899605
0.016122859 0.053455092 0.03114277 -0.021775763 -0.04430958 -0.028197186 -0.021601303 0.009271122
0.009342691 -0.007081651 0.058364287 -0.0016678852 -0.050034482 -0.047562916 0.0071476614 -0.0504952
-0.01037081 -0.00094335846 -0.03647083 -0.033095654 0.027829636 -0.014039839 -0.057989202 -0.006260493
0.057836942 -0.04192756 -0.05746644 0.014266733 -0.03170957 -0.00623924 -0.03979997 0.057631444
0.044192802 0.004547821 -0.040894166 0.018679658 0.03254019 -0.03772345 -0.026481923 0.031678773
0.019261425 -0.06276961 0.031026598 -0.04076374 0.036715675 -0.028602405 -0.04065046 0.039022844

bias f4 [31]
00000000: d757 4e3d 7fea 823c 6275 0bbd da59 39bd
00000010: 706c 583d bea7 45bd 9865 30bd c362 e5bb
00000020: eab2 cd3c bef5 d23b be07 c0bb 6083 10bd
00000030: 99fd d8bc 10cd 5fbc e13a a9bb 8d63 353d
00000040: 3ad8 76bd 19b0 12bd fdc0 7e3d 1166 9ebc
00000050: 8d85 43bd a13e 37bc 4ea7 03bc 9adb 52bd
00000060: fd7b c83c 7ab8 47bd b8d9 06bd d07f 91bc
00000070: 7eb3 16bd 704c 8c3c 32cf 24bd
0.05037674 0.015980957 -0.03404749 -0.045251705 0.05283779 -0.048255675 -0.043065637 -0.0070002987
0.025109727 0.006437986 -0.005860298 -0.03528154 -0.026488112 -0.013659731 -0.0051644896 0.044284392
-0.060264803 -0.03581247 0.062195767 -0.019335778 -0.047734786 -0.0111843655 -0.008035494 -0.05147896
0.024473185 -0.048759915 -0.032922477 -0.017761141 -0.03679227 0.017126292 -0.04023666
